…
ab":{"base_uri":"https://localhost:8080/"},"executionInfo":{"elapsed":5006,"status":"ok","timestamp":1652769891927,"user":{"displayName":"Abhishek Mishra","userId":"14841012147131085112"},"user_tz":-330},"id":"CT4Dl_Qjm5se","outputId":"5970107e-5a90-4e6a-886c-01ee1bf39a8b"},"outputs":[{"output_type":"stream","name":"stdout","text":["Model: \"sequential\"\n","_________________________________________________________________\n"," Layer (type)                Output Shape              Param #   \n","=================================================================\n"," conv2d (Conv2D)             (None, 26, 26, 32)        320       \n","                                                                 \n"," max_pooling2d (MaxPooling2D  (None, 13, 13, 32)       0         \n"," )                                                               \n","                                                                 \n"," dropout (Dropout)           (None, 13, 13, 32)        0         \n","                                                                 \n"," conv2d_1 (Conv2D)           (None, 11, 11, 64)        18496     \n","                                                                 \n"," max_pooling2d_1 (MaxPooling  (None, 5, 5, 64)         0         \n"," 2D)                                                             \n","                                                                 \n"," flatten (Flatten)           (None, 1600)              0         \n","                                                                 \n"," dropout_1 (Dropout)         (None, 1600)              0         \n","                                                                 \n"," dense (Dense)               (None, 10)                16010     \n","                                                                 \n","=================================================================\n","Total params: 34,826\n","Trainable params: 34,826\n","Non-trainable params: 0\n","_________________________________________________________________\n"]}],"source":["model = keras.Sequential(\n","    [\n","        keras.Input(shape=input_shape),\n"," 
…
